…
arching module (compiling might take a while)...
2024-07-12 09:23:59 	Done.
2024-07-12 09:23:59 Loading tiledgrid encoding (compiling might take a while)...
2024-07-12 09:23:59 	Done!
2024-07-12 09:23:59 Loading frequency encoding (compiling might take a while)...
2024-07-12 09:23:59 	Done!
2024-07-12 09:23:59 Loaded grid NeRF, #parameters: 12268546
2024-07-12 09:23:59 NeRFNetwork(
  (encoder): GridEncoder: input_dim=3 num_levels=16 level_dim=2 resolution=16 -> 2048 per_level_scale=1.3819 params=(6119864, 2) gridtype=tiled align_corners=False
  (sigma_net): MLP(
    (net): ModuleList(
      (0): Linear(in_features=32, out_features=64, bias=True)
      (1): Linear(in_features=64, out_features=64, bias=True)
      (2): Linear(in_features=64, out_features=5, bias=True)
    )
  )
  (encoder_bg): FreqEncoder: input_dim=3 degree=6 output_dim=39
  (bg_net): MLP(
    (net): ModuleList(
      (0): Linear(in_features=39, out_features=64, bias=True)
      (1): Linear(in_features=64, out_features=4, bias=True)
    )
  )
  (localization_net): MLP(
    (net): ModuleList(
      (0): Linear(in_features=32, out_features=64, bias=True)
      (1): Linear(in_features=64, out_features=64, bias=True)
      (2): Linear(in_features=64, out_features=1, bias=True)
    )
  )
  (stylization_net): MLP(
    (net): ModuleList(
      (0): Linear(in_features=32, out_features=64, bias=True)
      (1): Linear(in_features=64, out_features=64, bias=True)
      (2): Linear(in_features=64, out_features=4, bias=True)
    )
  )
  (background_net): MLP(
    (net): ModuleList(
      (0): Linear(in_features=32, out_features=64, bias=True)
      (1): Linear(in_features=64, out_features=64, bias=True)
      (2): Linear(in_features=64, out_features=4, bias=True)
    )
  )
)
2024-07-12 09:23:59 try to load hugging face access token from the default place, make sure you have run `huggingface-cli login`.
2024-07-12 09:23:59 loading stable diffusion with CompVis/stable-diffusion-v1-4...
2024-07-12 09:24:01 	 successfully loaded stable diffusion!
2024-07-12 09:24:01 Localization prompt: a 3d render of a a lego man with black shirt
…
2024-07-19 04:24:39 Loading CUDA ray marching module (compiling might take a while)...
2024-07-19 04:25:49 	Done.
2024-07-19 04:25:49 Loading tiledgrid encoding (compiling might take a while)...
2024-07-19 04:25:49 	Done!
2024-07-19 04:25:49 Loading frequency encoding (compiling might take a while)...
2024-07-19 04:25:49 	Done!
2024-07-19 04:25:49 Loaded grid NeRF, #parameters: 12268286
2024-07-19 04:25:49 NeRFNetwork(
  (encoder): GridEncoder: input_dim=3 num_levels=16 level_dim=2 resolution=16 -> 2048 per_level_scale=1.3819 params=(6119864, 2) gridtype=tiled align_corners=False
  (sigma_net): MLP(
    (net): ModuleList(
      (0): Linear(in_features=32, out_features=64, bias=True)
      (1): Linear(in_features=64, out_features=64, bias=True)
      (2): Linear(in_features=64, out_features=4, bias=True)
    )
  )
  (encoder_bg): FreqEncoder: input_dim=3 degree=6 output_dim=39
  (bg_net): MLP(
    (net): ModuleList(
      (0): Linear(in_features=39, out_features=64, bias=True)
      (1): Linear(in_features=64, out_features=3, bias=True)
    )
  )
  (localization_net): MLP(
    (net): ModuleList(
      (0): Linear(in_features=32, out_features=64, bias=True)
      (1): Linear(in_features=64, out_features=64, bias=True)
      (2): Linear(in_features=64, out_features=1, bias=True)
    )
  )
  (stylization_net): MLP(
    (net): ModuleList(
      (0): Linear(in_features=32, out_features=64, bias=True)
      (1): Linear(in_features=64, out_features=64, bias=True)
      (2): Linear(in_features=64, out_features=3, bias=True)
    )
  )
  (background_net): MLP(
    (net): ModuleList(
      (0): Linear(in_features=32, out_features=64, bias=True)
      (1): Linear(in_features=64, out_features=64, bias=True)
      (2): Linear(in_features=64, out_features=3, bias=True)
    )
  )
)
2024-07-19 04:25:49 try to load hugging face access token from the default place, make sure you have run `huggingface-cli login`.
2024-07-19 04:25:49 loading stable diffusion with CompVis/stable-diffusion-v1-4...
2024-07-19 04:25:51 	 successfully loaded stable diffusion!
2024-07-19 04:25:51 Localization prompt: a 3d render of a a lego man with black shirt
…
