…
2024-07-05 02:42:49 Loading CUDA ray marching module (compiling might take a while)...
2024-07-05 02:43:04 	Done.
2024-07-05 02:43:04 Loading tiledgrid encoding (compiling might take a while)...
2024-07-05 02:43:04 	Done!
2024-07-05 02:43:04 Loading frequency encoding (compiling might take a while)...
2024-07-05 02:43:04 	Done!
2024-07-05 02:43:04 Loaded grid NeRF, #parameters: 12268546
2024-07-05 02:43:04 NeRFNetwork(
  (encoder): GridEncoder: input_dim=3 num_levels=16 level_dim=2 resolution=16 -> 2048 per_level_scale=1.3819 params=(6119864, 2) gridtype=tiled align_corners=False
  (sigma_net): MLP(
    (net): ModuleList(
      (0): Linear(in_features=32, out_features=64, bias=True)
      (1): Linear(in_features=64, out_features=64, bias=True)
      (2): Linear(in_features=64, out_features=5, bias=True)
    )
  )
  (encoder_bg): FreqEncoder: input_dim=3 degree=6 output_dim=39
  (bg_net): MLP(
    (net): ModuleList(
      (0): Linear(in_features=39, out_features=64, bias=True)
      (1): Linear(in_features=64, out_features=4, bias=True)
    )
  )
  (localization_net): MLP(
    (net): ModuleList(
      (0): Linear(in_features=32, out_features=64, bias=True)
      (1): Linear(in_features=64, out_features=64, bias=True)
      (2): Linear(in_features=64, out_features=1, bias=True)
    )
  )
  (stylization_net): MLP(
    (net): ModuleList(
      (0): Linear(in_features=32, out_features=64, bias=True)
      (1): Linear(in_features=64, out_features=64, bias=True)
      (2): Linear(in_features=64, out_features=4, bias=True)
    )
  )
  (background_net): MLP(
    (net): ModuleList(
      (0): Linear(in_features=32, out_features=64, bias=True)
      (1): Linear(in_features=64, out_features=64, bias=True)
      (2): Linear(in_features=64, out_features=4, bias=True)
    )
  )
)
2024-07-05 02:43:04 try to load hugging face access token from the default place, make sure you have run `huggingface-cli login`.
2024-07-05 02:43:04 loading stable diffusion with CompVis/stable-diffusion-v1-4...
2024-07-05 02:43:07 	 successfully loaded stable diffusion!
2024-07-05 02:43:07 Successfully initialized sand_castle
2024-07-05 02:43:07 Starting training ^_^
…
2024-07-05 05:36:49 Loading CUDA ray marching module (compiling might take a while)...
2024-07-05 05:36:51 	Done.
2024-07-05 05:36:51 Loading tiledgrid encoding (compiling might take a while)...
2024-07-05 05:36:51 	Done!
2024-07-05 05:36:51 Loading frequency encoding (compiling might take a while)...
2024-07-05 05:36:51 	Done!
2024-07-05 05:36:51 Loaded grid NeRF, #parameters: 12249145
2024-07-05 05:36:51 NeRFNetwork(
  (encoder): GridEncoder: input_dim=3 num_levels=16 level_dim=2 resolution=16 -> 2048 per_level_scale=1.3819 params=(6119864, 2) gridtype=tiled align_corners=False
  (sigma_net): MLP(
    (net): ModuleList(
      (0): Linear(in_features=32, out_features=64, bias=True)
      (1): Linear(in_features=64, out_features=64, bias=True)
      (2): Linear(in_features=64, out_features=5, bias=True)
    )
  )
  (encoder_bg): FreqEncoder: input_dim=3 degree=6 output_dim=39
  (bg_net): MLP(
    (net): ModuleList(
      (0): Linear(in_features=39, out_features=64, bias=True)
      (1): Linear(in_features=64, out_features=4, bias=True)
    )
  )
)
2024-07-05 05:36:51 try to load hugging face access token from the default place, make sure you have run `huggingface-cli login`.
2024-07-05 05:36:51 loading stable diffusion with CompVis/stable-diffusion-v1-4...
2024-07-05 05:36:53 	 successfully loaded stable diffusion!
2024-07-05 05:36:54 Successfully initialized sand_castle
2024-07-05 05:36:54 Starting training ^_^
…
