…
2024-07-12 02:37:08 Loading CUDA ray marching module (compiling might take a while)...
2024-07-12 02:38:15 	Done.
2024-07-12 02:38:15 Loading tiledgrid encoding (compiling might take a while)...
2024-07-12 02:38:15 	Done!
2024-07-12 02:38:15 Loading frequency encoding (compiling might take a while)...
2024-07-12 02:38:15 	Done!
2024-07-12 02:38:16 Loaded grid NeRF, #parameters: 12249145
2024-07-12 02:38:16 NeRFNetwork(
  (encoder): GridEncoder: input_dim=3 num_levels=16 level_dim=2 resolution=16 -> 2048 per_level_scale=1.3819 params=(6119864, 2) gridtype=tiled align_corners=False
  (sigma_net): MLP(
    (net): ModuleList(
      (0): Linear(in_features=32, out_features=64, bias=True)
      (1): Linear(in_features=64, out_features=64, bias=True)
      (2): Linear(in_features=64, out_features=5, bias=True)
    )
  )
  (encoder_bg): FreqEncoder: input_dim=3 degree=6 output_dim=39
  (bg_net): MLP(
    (net): ModuleList(
      (0): Linear(in_features=39, out_features=64, bias=True)
      (1): Linear(in_features=64, out_features=4, bias=True)
    )
  )
)
2024-07-12 02:38:16 try to load hugging face access token from the default place, make sure you have run `huggingface-cli login`.
2024-07-12 02:38:16 loading stable diffusion with CompVis/stable-diffusion-v1-4...
2024-07-12 02:38:36 	 successfully loaded stable diffusion!
2024-07-12 02:38:36 Successfully initialized lego man
2024-07-12 02:38:36 Starting training ^_^
…
2024-07-12 03:20:42 Loading CUDA ray marching module (compiling might take a while)...
2024-07-12 03:20:44 	Done.
2024-07-12 03:20:44 Loading tiledgrid encoding (compiling might take a while)...
2024-07-12 03:20:44 	Done!
2024-07-12 03:20:44 Loading frequency encoding (compiling might take a while)...
2024-07-12 03:20:44 	Done!
2024-07-12 03:20:44 Loaded grid NeRF, #parameters: 12268546
2024-07-12 03:20:44 NeRFNetwork(
  (encoder): GridEncoder: input_dim=3 num_levels=16 level_dim=2 resolution=16 -> 2048 per_level_scale=1.3819 params=(6119864, 2) gridtype=tiled align_corners=False
  (sigma_net): MLP(
    (net): ModuleList(
      (0): Linear(in_features=32, out_features=64, bias=True)
      (1): Linear(in_features=64, out_features=64, bias=True)
      (2): Linear(in_features=64, out_features=5, bias=True)
    )
  )
  (encoder_bg): FreqEncoder: input_dim=3 degree=6 output_dim=39
  (bg_net): MLP(
    (net): ModuleList(
      (0): Linear(in_features=39, out_features=64, bias=True)
      (1): Linear(in_features=64, out_features=4, bias=True)
    )
  )
  (localization_net): MLP(
    (net): ModuleList(
      (0): Linear(in_features=32, out_features=64, bias=True)
      (1): Linear(in_features=64, out_features=64, bias=True)
      (2): Linear(in_features=64, out_features=1, bias=True)
    )
  )
  (stylization_net): MLP(
    (net): ModuleList(
      (0): Linear(in_features=32, out_features=64, bias=True)
      (1): Linear(in_features=64, out_features=64, bias=True)
      (2): Linear(in_features=64, out_features=4, bias=True)
    )
  )
  (background_net): MLP(
    (net): ModuleList(
      (0): Linear(in_features=32, out_features=64, bias=True)
      (1): Linear(in_features=64, out_features=64, bias=True)
      (2): Linear(in_features=64, out_features=4, bias=True)
    )
  )
)
2024-07-12 03:20:44 try to load hugging face access token from the default place, make sure you have run `huggingface-cli login`.
2024-07-12 03:20:44 loading stable diffusion with CompVis/stable-diffusion-v1-4...
2024-07-12 03:20:46 	 successfully loaded stable diffusion!
2024-07-12 03:22:00 Loading CUDA ray marching module (compiling might take a while)...
…
