…
arching module (compiling might take a while)...
2024-08-25 05:18:40 	Done.
2024-08-25 05:18:40 Loading tiledgrid encoding (compiling might take a while)...
2024-08-25 05:18:40 	Done!
2024-08-25 05:18:40 Loading frequency encoding (compiling might take a while)...
2024-08-25 05:18:40 	Done!
2024-08-25 05:18:40 Loaded grid NeRF, #parameters: 12268286
2024-08-25 05:18:40 NeRFNetwork(
  (encoder): GridEncoder: input_dim=3 num_levels=16 level_dim=2 resolution=16 -> 2048 per_level_scale=1.3819 params=(6119864, 2) gridtype=tiled align_corners=False
  (sigma_net): MLP(
    (net): ModuleList(
      (0): Linear(in_features=32, out_features=64, bias=True)
      (1): Linear(in_features=64, out_features=64, bias=True)
      (2): Linear(in_features=64, out_features=4, bias=True)
    )
  )
  (encoder_bg): FreqEncoder: input_dim=3 degree=6 output_dim=39
  (bg_net): MLP(
    (net): ModuleList(
      (0): Linear(in_features=39, out_features=64, bias=True)
      (1): Linear(in_features=64, out_features=3, bias=True)
    )
  )
  (localization_net): MLP(
    (net): ModuleList(
      (0): Linear(in_features=32, out_features=64, bias=True)
      (1): Linear(in_features=64, out_features=64, bias=True)
      (2): Linear(in_features=64, out_features=1, bias=True)
    )
  )
  (stylization_net): MLP(
    (net): ModuleList(
      (0): Linear(in_features=32, out_features=64, bias=True)
      (1): Linear(in_features=64, out_features=64, bias=True)
      (2): Linear(in_features=64, out_features=3, bias=True)
    )
  )
  (background_net): MLP(
    (net): ModuleList(
      (0): Linear(in_features=32, out_features=64, bias=True)
      (1): Linear(in_features=64, out_features=64, bias=True)
      (2): Linear(in_features=64, out_features=3, bias=True)
    )
  )
)
2024-08-25 05:18:40 try to load hugging face access token from the default place, make sure you have run `huggingface-cli login`.
2024-08-25 05:18:40 loading stable diffusion with CompVis/stable-diffusion-v1-4...
2024-08-25 05:18:42 	 successfully loaded stable diffusion!
2024-08-25 05:18:48 Loaded DeepFloyd IF
2024-08-25 05:18:53 Loaded DeepFloyd IF
…
